interfaces/kalosm-learning/classifier.safetensors (safetensors, 17784 bytes, 8 tensors)

ln0.bias f4 [10]
0	0xbe987952	-0.2978006
1	0x3e6f3cf5	0.23363097
2	0x3ec4b262	0.38417345
3	0xbe0b82f8	-0.1362418
4	0x3e44d6bc	0.1922254
5	0x3dc152be	0.0943961
6	0xbea35434	-0.3190018
7	0xbe9294d3	-0.2862917
8	0x3e67c86b	0.22635047
9	0x3f1a1ddc	0.6020181

ln0.weight f4 [10, 384]
0	0x3e9b56d3	0.3033968
1	0xbeaf5f5a	-0.34252435
2	0xbe932fa0	-0.28747272
3	0xbe8c102a	-0.27356082
4	0x3e96c8b8	0.2945001
5	0xbe5b05ed	-0.2138898
6	0xbe8e84cc	-0.2783569
7	0xbe8ff92a	-0.28119785
8	0xbea33c59	-0.3188198
9	0xbe9491f3	-0.290176
10	0x3e54ac87	0.20768939
11	0xbe3cbec0	-0.1843214
12	0xbea10081	-0.31445697
13	0x3ec2d884	0.38055813
14	0x3ea85f34	0.32885134
15	0xbeaedee3	-0.34154424
16	0x3e13234a	0.1436893
17	0xbe8b9d1a	-0.27268296
18	0xbebc3297	-0.36757347
19	0x3ea40aa5	0.3203937
20	0xbe530de8	-0.20610774
21	0xbea8b9dc	-0.329543
22	0xbe8413d7	-0.25796387
23	0xbea0f200	-0.3143463
24	0xbebd9828	-0.37030149
25	0x3e95e112	0.29273278
26	0x3ecc592a	0.39911777
27	0xbe929c51	-0.28634885
28	0x3e28c494	0.16481239
29	0x3e93881b	0.28814778
30	0xbe8968e8	-0.2683785
31	0xbe63faea	-0.22263685
32	0xbe5c5108	-0.21515286
33	0xbcff68ed	-0.031177962
34	0x3ec8e770	0.39239073
35	0xbe953271	-0.29140046
36	0xbea71f29	-0.3264096
37	0xbe86c9c2	-0.26325804
38	0x3dc25694	0.0948917
39	0x3eafbba6	0.34322852
40	0x3db69e60	0.089169264
41	0xbe98d1fc	-0.29847705
42	0xbe84d23b	-0.25941643
43	0x3e8584c3	0.26077852
44	0xbd7eb426	-0.06218352
45	0x3e593123	0.2121015
46	0x3e9a2efd	0.30113974
47	0x3e3acf14	0.18243057
48	0x3e73f3b6	0.23823437
49	0xbe52fd75	-0.20604499
50	0xbe27242f	-0.16322397
51	0xbebc41cf	-0.36768958
52	0xbd76efc2	-0.060287245
53	0x3e95d606	0.2926485
54	0xbeaa1a84	-0.33223355
55	0xbea0a482	-0.3137551
56	0x3ec2f4c0	0.38077354
57	0xbed96dcb	-0.42466578
58	0xbe990320	-0.29885197
59	0x3e871f30	0.26390982
60	0x3e84eac6	0.25960368
61	0xbe8d2fb2	-0.2757545
62	0x3e3b7f1e	0.1831021
63	0xbe16e9f4	-0.14737684
64	0x3e9139a8	0.283643
65	0xbe5f9e57	-0.21837746
66	0x3e5db221	0.21649982
67	0x3ec3dddf	0.38255212
68	0x3e9e2a05	0.30891433
69	0x3e955531	0.29166558
70	0x3eef112e	0.46692795
71	0xbe3f70ed	-0.18695422
72	0xbeb596a0	-0.3546648
73	0x3e689754	0.22713977
74	0x3e8419d1	0.25800946
75	0xbdd4b55c	-0.10386154
76	0xbe61abcd	-0.22038193
77	0xbe886b06	-0.26644152
78	0x3eaf21e9	0.3420556
79	0xbe87ba8f	-0.2650952
80	0x3e548b72	0.20756319
81	0x3e83bc49	0.25729588
82	0xbe0fb2ea	-0.14033094
83	0xbec3499b	-0.38142094
84	0x3e1334d7	0.14375626
85	0xbe8d0edf	-0.27550408
86	0x3e8783d9	0.2646778
87	0xbe95c7e1	-0.29254058
88	0x3e8995fc	0.26872241
89	0x3e0b790e	0.13620397
90	0xbe8f34b2	-0.2796989
91	0x3e96e017	0.29467842
92	0xbeb1d8d7	-0.34735748
93	0xbe93e96f	-0.28889033
94	0x3eab8e0a	0.33506805
95	0xbe0a3892	-0.13498142
96	0x3eaa0977	0.33210346
97	0x3ea58e1b	0.3233498
98	0x3eced0bf	0.40393636
99	0xbe334d31	-0.17509915
100	0x3ebce7ae	0.36895508
101	0x3e767efa	0.24071875
102	0xbebdda61	-0.37080672
103	0xbe91d740	-0.28484535
104	0xbe2321ae	-0.15930817
105	0xbeae6a5b	-0.34065518
106	0x3e839048	0.25696015
107	0xbe64734c	-0.22309607
108	0x3eb9b1b5	0.36268392
109	0x3e5bb951	0.21457411
110	0xbd9ffaa8	-0.07811481
111	0x3dd789ef	0.105243556
112	0xbe8269bf	-0.25471303
113	0xbe45d377	-0.19318949
114	0xbeb496db	-0.35271344
115	0x3e7757c3	0.24154572
116	0xbe0be6f6	-0.13662323
117	0xbe18d93d	-0.1492662
118	0xbe7cd676	-0.24691185
119	0x3e281b93	0.16416769
120	0xbe9e88d6	-0.30963773
121	0xbe8b7f6a	-0.27245647
122	0x3e808305	0.2509996
123	0xbe8f143d	-0.27945128
124	0x3eb7103d	0.35754576
125	0xbe5e6e13	-0.21721677
126	0xbea583fc	-0.3232726
127	0x3dbf2cdd	0.09334729
128	0xbe4a8b74	-0.1977976
129	0xbe949820	-0.29022312
130	0xbe4f6c42	-0.20256141
131	0xbe5440f1	-0.20727898
132	0xbe20ef9e	-0.15716407
133	0xbe7afb82	-0.24510005
134	0xbe3b3189	-0.18280615
135	0xbe80698e	-0.25080532
136	0xbe337e92	-0.17528751
137	0x3eafd2d1	0.34340528
138	0x3e856aa8	0.26057935
139	0x3e2b0026	0.16699275
140	0x3e841994	0.25800765
141	0x3dc342eb	0.09534248
142	0xbd8f5479	-0.06998534
143	0xbe513c4f	-0.20433162
144	0x3e4ca26b	0.19983833
145	0x3e93bd2e	0.2885527
146	0xbdd6dbea	-0.10491164
147	0x3dc5e8b8	0.09663528
148	0xbeaead5a	-0.34116632
149	0xbe32038e	-0.17384169
150	0xbe54c175	-0.20776923
151	0xbe95ca50	-0.29255915
152	0xbe7cb036	-0.24676594
153	0x3e7b1ecf	0.24523471
154	0xbe81d101	-0.2535477
155	0x3e1e3fa0	0.15453959
156	0xbd7e16d4	-0.06203349
157	0xbe5df6bd	-0.21676154
158	0xbe60f1ca	-0.21967235
159	0x3e658cf0	0.22417045
160	0x3e965139	0.29358843
161	0x3e5aa713	0.21352796
162	0xbe6f57da	-0.23373356
163	0x3eb860ef	0.36011454
164	0x3e87cd30	0.26523733
165	0x3e79726d	0.24360056
166	0x3e102619	0.14077033
167	0xbe561b86	-0.20908937
168	0x3e6d1d23	0.23155646
169	0x3e9ef6b5	0.31047598
170	0xbe80f57f	-0.251873
171	0x3e8b167d	0.27165595
172	0x3e531d9b	0.20616762
173	0xbcac7308	-0.021050945
174	0x3ee8aee9	0.45445946
175	0xbe2a901e	-0.16656539
176	0xbea217a6	-0.31658667
177	0xbe988716	-0.29790562
178	0x3e6d900d	0.23199482
179	0xbde61ce4	-0.11235979
180	0x3e48fbb5	0.19627269
181	0xbe8dae07	-0.27671835
182	0x3eb0c8b9	0.3452814
183	0x3e60cc49	0.21952929
184	0x3ed80d38	0.42197585
185	0xbee72cdc	-0.45151412
186	0xbe829d2c	-0.25510538
187	0xbe975ae0	-0.2956152
188	0x3de30353	0.110846184
189	0xbe9f3338	-0.31093764
190	0xbea6a0ee	-0.32544655
191	0xbe78858b	-0.24269693
192	0xbea9ca1b	-0.33162007
193	0x3e55ab2b	0.20866077
194	0x3e94f122	0.2909022
195	0x3cecb890	0.0288966
196	0x3df62df0	0.12020481
197	0x3e6f8da1	0.23393871
198	0x3e31ab6a	0.17350546
199	0xbe5bca22	-0.21463826
200	0xbe90397c	-0.28168857
201	0x3d925a7d	0.071461655
202	0x3ec56176	0.3855092
203	0xbe886389	-0.2663844
204	0x3e37cb3a	0.17948619
205	0x3ea7b2b0	0.32753515
206	0x3e29c232	0.16577986
207	0x3e967d23	0.29392347
208	0x3e5652dc	0.20930046
209	0xbe8a0cb4	-0.26962817
210	0xbe5c1600	-0.21492767
211	0x3e302e7a	0.1720523
212	0x3e17408d	0.14770718
213	0x3e836d6c	0.2566942
214	0x3e511641	0.20418645
215	0x3eb42097	0.35181114
216	0xbea8935b	-0.32924923
217	0xbe8cb368	-0.27480626
218	0xbe705d16	-0.2347301
219	0x3b94c00a	0.0045394944
220	0xbe995d1d	-0.29953852
221	0x3eb441c1	0.35206416
222	0x3eae1d52	0.34006745
223	0x3e24c1ca	0.1608955
224	0x3e737c91	0.23777987
225	0x3eae5dd9	0.34055975
226	0xbe95ae66	-0.29234618
227	0xbe7cddce	-0.24693987
228	0xbe961741	-0.29314616
229	0x3e8e3f7a	0.27782804
230	0x3ebc9c26	0.36837882
231	0xbe8aae4f	-0.27086112
232	0x3e66e67f	0.22548865
233	0x3ea7ab12	0.32747704
234	0xbdfa452f	-0.12220227
235	0xbeaccae8	-0.33748555
236	0xbea9df0b	-0.3317798
237	0x3e6ddbe9	0.2322842
238	0xbec676a3	-0.38762388
239	0x3e5822e2	0.21107057
240	0x3e2a2fba	0.16619769
241	0x3ebe9005	0.37219253
242	0xbe19b124	-0.1500898
243	0xbe68194d	-0.22665901
244	0xbe4b02fd	-0.19825359
245	0x3e7ab6fb	0.24483864
246	0x3ec13bda	0.37740976
247	0x3e6d286c	0.23159951
248	0x3ea2cdcc	0.31797636
249	0xbe81190d	-0.25214425
250	0xbea95cbc	-0.33078563
251	0xbe8b2cf8	-0.27182746
252	0x3e4410e0	0.19147062
253	0x3dfa5a80	0.12224293
254	0xbe430b12	-0.19047192
255	0xbe36abef	-0.17839025

ln1.bias f4 [20]
0	0xbf06e375	-0.5269082
1	0xbeffed1d	-0.4998559
2	0x3ec5680f	0.38555953
3	0xbebc762d	-0.3680891
4	0xbe929922	-0.28632456
5	0x3e8254ec	0.25455415
6	0xbeb5c3d8	-0.3550098
7	0x3ea14812	0.31500298
8	0xbd612d81	-0.054975037
9	0xbdbcec9d	-0.09224818
10	0x3f1ce480	0.61286163
11	0xbe850ad9	-0.2598484
12	0xbe93ca98	-0.28865504
13	0xbe941323	-0.2892085
14	0x3ed187bb	0.40923867
15	0x3e87c202	0.26515204
16	0xbef97058	-0.48718524
17	0x3cc176e7	0.023616267
18	0x3ef45bcb	0.47726282
19	0x3f02fb23	0.51164454

ln1.weight f4 [20, 10]
0	0xbec883d6	-0.39163083
1	0xbf794445	-0.97369796
2	0xbe365ace	-0.17808077
3	0xbef1b4c8	-0.47208238
4	0x3d989ead	0.0745214
5	0x3dce4aaf	0.100728385
6	0xbf2b8b77	-0.6700968
7	0x3e774cf4	0.24150449
8	0xbe3c2ff3	-0.18377666
9	0xbe706f90	-0.23480058
10	0x3ec085d8	0.37602115
11	0x3d0d046d	0.03442805
12	0xbecf4ab1	-0.40486673
13	0xbf37e1a5	-0.7182868
14	0x3d3319ef	0.043725904
15	0xbe53d6fc	-0.20687479
16	0x3f06ecd0	0.527051
17	0xbed4833d	-0.41506377
18	0x3f5a136d	0.8518589
19	0xbf3b2ed5	-0.73118335
20	0xbe604ba4	-0.21903855
21	0x3ea65e53	0.3249384
22	0x3f56ef4e	0.839589
23	0x3e0f8afe	0.14017865
24	0x3f2d2bc2	0.67644894
25	0x3e76c260	0.24097586
26	0xbd01c705	-0.03168394
27	0x3e88364a	0.2660392
28	0x3f8cb783	1.0993503
29	0x3f2d298f	0.6764154
30	0x3f4455a9	0.7669321
31	0xbec2a2e7	-0.3801491
32	0xbf22419c	-0.6338136
33	0xbe10098d	-0.14066143
34	0x3e172a00	0.14762115
35	0xbe573f20	-0.21020174
36	0x3e423fb2	0.1896961
37	0xbe4b4a63	-0.19852595
38	0x3cbe4c9c	0.02322989
39	0xbebe260e	-0.37138408
40	0xbe846a57	-0.2586238
41	0x3e0d7c27	0.13816892
42	0x3ed8da4e	0.42354053
43	0xbe58233b	-0.2110719
44	0x3efb91ba	0.49134618
45	0xbdfe4b77	-0.124167375
46	0xbe8fdce4	-0.28098214
47	0xbf1f0af2	-0.62126076
48	0xbe89f466	-0.26944274
49	0xbd89141a	-0.06693287
50	0x3ef5a168	0.47974706
51	0xbc94a7aa	-0.018146355
52	0xbf4176a4	-0.75571656
53	0x3d487718	0.0489417
54	0xbd946f68	-0.072478116
55	0xbe25e1b3	-0.16199379
56	0xbe0248f1	-0.12723137
57	0x3edc6bdc	0.4305104
58	0x3f3ca7cf	0.73693556
59	0x3f15a7eb	0.5845935
60	0xbecb0978	-0.39655662
61	0xbde95447	-0.11393028
62	0xbe06a2be	-0.13148019
63	0xbea1f950	-0.31635523
64	0xbe9fe2e4	-0.3122779
65	0x3e9229ca	0.28547508
66	0x3edb419f	0.42823502
67	0xbcde582b	-0.027141651
68	0xbf5d0530	-0.8633604
69	0xbdf6af7a	-0.12045188
70	0x3ead80d6	0.33887357
71	0xbf0179f1	-0.5057669
72	0xbda42107	-0.08014112
73	0x3ca27b41	0.019834163
74	0xbcf30948	-0.029667512
75	0x3ec2686f	0.37970302
76	0xbf048fe6	-0.5178207
77	0xbebbf2c7	-0.36708662
78	0x3c142b48	0.009043522
79	0xbece70fc	-0.40320575
80	0x3e404711	0.1877711
81	0xbd12c14b	-0.03582887
82	0xbf19ae83	-0.6003191
83	0x3f8a6071	1.0810682
84	0xbdac6f22	-0.084196344
85	0xbe6448cb	-0.22293393
86	0x3e8f6912	0.2800985
87	0xbed8647f	-0.42264172
88	0xbe826df3	-0.2547451
89	0xbf0f4214	-0.559602
90	0xbebdd513	-0.37076625
91	0xbf031c4c	-0.5121505
92	0xbfb16e78	-1.3861837
93	0xbe01c03a	-0.12670985
94	0xbf2e4773	-0.6807777
95	0xbdc48dd9	-0.09597368
96	0xbe8f202e	-0.2795424
97	0xbe0a1b42	-0.1348696
98	0xbe82497a	-0.25446683
99	0xbe75af83	-0.23992734
100	0x3eb3469f	0.35014817
101	0x3f9eb4d9	1.239894
102	0x3e93576a	0.2877763
103	0x3f9aaefa	1.2084649
104	0x3f01e8e7	0.50746006
105	0x3f25c7ad	0.64757806
106	0xbe6b1c77	-0.22960077
107	0xbefcffc4	-0.49413884
108	0xbf8aaff5	-1.0834948
109	0x3d55beb0	0.052183807
110	0x3df2b914	0.11851707
111	0x3ef95224	0.4869548
112	0xbf104dd0	-0.5636873
113	0x3f22171d	0.6331652
114	0xbf28a307	-0.6587376
115	0xbe39115b	-0.18073027
116	0x3f6655af	0.8997449
117	0xbe63bd05	-0.22240074
118	0x3e32b5f2	0.17452219
119	0x3d241088	0.040054828
120	0xbe299d52	-0.16563919
121	0xbe885142	-0.26624495
122	0xbf1aa4b8	-0.6040759
123	0x3e3e5b23	0.18589453
124	0xbb892ce3	-0.004186259
125	0xbd1debd5	-0.038554985
126	0xbe011269	-0.12604679
127	0x3d92caf8	0.071676195
128	0x3ee099ef	0.43867442
129	0xbf56123a	-0.8362156
130	0x3d9a4313	0.07532325
131	0xbf4c84ba	-0.79890025
132	0x3e90eaa7	0.28304026
133	0xbd847c49	-0.06469018
134	0xbe2d6901	-0.16934587
135	0x3f91aa82	1.138016
136	0xbe7ffc97	-0.24998699
137	0x3f04c3f9	0.5186153
138	0x3df6a1a2	0.12042548
139	0x3d6fd554	0.058553055
140	0x3f070258	0.5273795
141	0xbf49093d	-0.7852972
142	0xbefc5624	-0.4928447
143	0x3ebe904e	0.3721947
144	0xbe07f9a4	-0.13278824
145	0x3f04ea49	0.5191999
146	0xbea0b677	-0.3138921
147	0x3d918e28	0.07107192
148	0x3fbed149	1.4907619
149	0x3fa02cd1	1.2513677
150	0xbe69fa73	-0.22849445
151	0xbe48fd42	-0.1962786
152	0xbf3cb1d5	-0.7370885
153	0x3f58bd40	0.8466377
154	0xbf007c93	-0.50190085
155	0x3e9f2d0d	0.3108906
156	0xbc2cef83	-0.010555151
157	0xbeded54d	-0.4352211
158	0x3f0029fc	0.50064063
159	0x3fc26f14	1.5190148
160	0xbf36cefa	-0.7140957
161	0x3df1c217	0.11804598
162	0xbeb1bff8	-0.34716773
163	0xbf38f0fa	-0.722427
164	0xbe1e6e31	-0.15471722
165	0x3e1e70a4	0.15472656
166	0x3f1ecff5	0.6203607
167	0xbeb400e0	-0.35156918
168	0x3e844e4b	0.25840983
169	0xbf17ce25	-0.59298927
170	0x3e9e5903	0.30927286
171	0xbf72db96	-0.9486631
172	0x3e0e0e21	0.13872577
173	0x3f49416a	0.7861544
174	0xbef36211	-0.47535756
175	0x3ee0ee3a	0.43931752
176	0xbeeb41a8	-0.4594853
177	0x3e3bf434	0.18354875
178	0xbe27ef60	-0.16399908
179	0x3fa0ed5c	1.2572436
180	0x3e723933	0.23654632
181	0x3f940404	1.1563725
182	0x3f8df115	1.1089197
183	0xbe7a038a	-0.24415413
184	0x3e02e6ab	0.12783305
185	0x3fa3f4ee	1.2809122
186	0x3ce89800	0.028392792
187	0xbf8f69df	-1.1204184
188	0x3e2b9100	0.16754532
189	0x3f954510	1.1661701
190	0xbd863756	-0.06553523
191	0x3e79661a	0.24355355
192	0x3f4ca8f6	0.79945314
193	0x3ea00e16	0.31260747
194	0x3fa75e04	1.3075566
195	0x3edef088	0.43542886
196	0x3e165b7a	0.14683333
197	0x3e969a27	0.29414484
198	0x3d3ff6c7	0.046866205
199	0x3ea38d86	0.3194391

ln2.bias f4 [10]
0	0xbecd130e	-0.400536
1	0x3ec513a2	0.3849154
2	0xbc9f384e	-0.019436028
3	0x3efdc8b0	0.49567175
4	0xbeaaa5c4	-0.33329594
5	0x3f30ed60	0.69112206
6	0xbeaefb10	-0.3417592
7	0xbe90a119	-0.28247908
8	0xbdf52d53	-0.119715355
9	0x3f32bb3f	0.69816965

ln2.weight f4 [10, 20]
0	0x3da9cf2c	0.08291468
1	0x3e44d0c0	0.19220257
2	0xbf785f86	-0.9702076
3	0xbe07da38	-0.13266838
4	0x3d23f19f	0.04002535
5	0x3c7d0b9c	0.015444662
6	0xbec4ef72	-0.38463932
7	0xbed20176	-0.4101674
8	0x3d3f16aa	0.046652474
9	0x3c3659a6	0.011129772
10	0x3d873a5a	0.066029266
11	0xbedf799b	-0.43647465
12	0xbdbf0f8e	-0.09329139
13	0xbc302af8	-0.010752432
14	0xbdfacbf4	-0.12245932
15	0x3e8e0e9b	0.27745518
16	0xbd719b1f	-0.058985826
17	0xbdf4f4cc	-0.11960754
18	0xbf3e1eb8	-0.74265623
19	0x3d7775e1	0.060415152
20	0x3e2ffe5e	0.17186877
21	0xbe529dca	-0.20568004
22	0x3eb1fa3e	0.34761232
23	0xbe03e014	-0.12878448
24	0xbee600d9	-0.44922522
25	0x3f52f39a	0.82402956
26	0x3d98e1ab	0.07464918
27	0x3f2770f4	0.6540673
28	0xbec85247	-0.39125273
29	0x3ee5c022	0.44873148
30	0xbf572d8d	-0.8405388
31	0x3db41c95	0.08794514
32	0xbe1791ab	-0.14801662
33	0x3eedca63	0.4644347
34	0x3f327681	0.6971207
35	0x3f4d7d4a	0.802693
36	0x3d7a2f4a	0.061080255
37	0x3f085a71	0.53263
38	0x3d3cef74	0.046126798
39	0xbe24e6fe	-0.16103742
40	0x3d8a4ccd	0.0675293
41	0xbd71f694	-0.059073046
42	0xbe4a26a0	-0.19741297
43	0x3e1d26b8	0.15346801
44	0xbf4b74ae	-0.79474914
45	0x3e929b3c	0.2863406
46	0x3f101193	0.56276816
47	0x3f0f7e84	0.5605242
48	0xbc934470	-0.01797697
49	0x3f04ff4a	0.5195204
50	0xbea183d8	-0.315459
51	0xbe240f4a	-0.16021457
52	0xbe526488	-0.20546162
53	0x3f71179d	0.94176656
54	0x3f5fd117	0.8742842
55	0x3f1253a0	0.5715885
56	0x3ebfdc25	0.37472644
57	0x3f3be6e2	0.73399174
58	0xbc71b149	-0.014751741
59	0xbeab8ff0	-0.33508253
60	0xbe07bcb6	-0.13255581
61	0x3d19851b	0.037480455
62	0x3eea0e9f	0.4571428
63	0x3d4e6176	0.050385915
64	0xbf385f52	-0.7202045
65	0x3f1c6f93	0.6110775
66	0x3eedfdfb	0.46482834
67	0x3d911d97	0.07085722
68	0xbf3e1f6b	-0.7426669
69	0x3dbe9adf	0.09306883
70	0xbebe43ed	-0.37161198
71	0xbe9ffad4	-0.31246054
72	0xbe12280b	-0.14273088
73	0x3e983c06	0.29733294
74	0x3ec269e7	0.37971422
75	0x3f55ab68	0.8346467
76	0xbf626cb3	-0.8844711
77	0x3ea4a253	0.32155094
78	0x3f52c27f	0.8232803
79	0x3dc79c71	0.09746636
80	0x3ed9a7f5	0.42510954
81	0x3e201b7b	0.15635483
82	0xbf51b97e	-0.81923664
83	0x3f40bdc4	0.7528956
84	0x3ec52dcb	0.385115
85	0x3cd1db47	0.025617255
86	0xbe7ad8ca	-0.24496761
87	0xbf1c24ea	-0.60993826
88	0x3e2d6b05	0.16935356
89	0x3f0f4795	0.559686
90	0xbedc4a19	-0.43025282
91	0xbef53c95	-0.47897783
92	0xbe3758f2	-0.17905024
93	0xbea1cfe3	-0.31603917
94	0xbdedf189	-0.11618335
95	0x3e38e9c8	0.1805793
96	0x3e8f29ce	0.27961582
97	0x3f74e154	0.95656323
98	0xbef93470	-0.4867282
99	0xbedf2f6b	-0.43590865
100	0xbe2df799	-0.16988982
101	0x3c741eab	0.01489989
102	0x3f2b066f	0.6680669
103	0xbe737c70	-0.23777938
104	0x3e77eb80	0.2421093
105	0x3e8fb946	0.2807104
106	0xbefe5a07	-0.4967806
107	0xbef8221a	-0.48463517
108	0xbee13c2d	-0.43991223
109	0xbd0f6b27	-0.035014298
110	0x3f54c5a9	0.83114105
111	0x3e47def3	0.19518642
112	0xbf2110df	-0.6291637
113	0x3e3b6a1f	0.183022
114	0xbd9ded29	-0.0771125
115	0xbd8ed149	-0.06973512
116	0x3f05712b	0.52125806
117	0x3e27e9f4	0.1639784
118	0x3f4f9ab5	0.8109544
119	0x3f263744	0.6492808
120	0x3edf9fc8	0.4367659
121	0xbdfbc85f	-0.12294077
122	0xbe513cba	-0.20433322
123	0xbeb247f6	-0.34820527
124	0x3ded567b	0.115887605
125	0xbd81a0db	-0.06329509
126	0xbf261a3b	-0.64883775
127	0xbf4aff40	-0.7929573
128	0x3d917914	0.07103172
129	0xbe4d710a	-0.20062652
130	0xbeb94821	-0.36187842
131	0xbe8be0d5	-0.2731997
132	0xbef104dc	-0.4707402
133	0x3e6a0a46	0.22855482
134	0xbd4d5f86	-0.050139926
135	0xbe8ff3c1	-0.28115657
136	0x3e3bac19	0.18327369
137	0xbef5662d	-0.47929516
138	0xbe40239f	-0.18763588
139	0xbeb96ec2	-0.36217314
140	0x3f2615bf	0.6487693
141	0xbf018c2d	-0.50604516
142	0xbefeb850	-0.49749994
143	0x3e71da25	0.23618372
144	0xbe4acad9	-0.19803943
145	0xbeb22d1b	-0.34800038
146	0x3ecec833	0.40387115
147	0x3eb38aa5	0.35066715
148	0xbe9efbd2	-0.310515
149	0xbe936b62	-0.28792864
150	0x3e4a423e	0.19751832
151	0xbf004916	-0.5011152
152	0xbf0d92b2	-0.55301964
153	0xbd2c6cd6	-0.04209598
154	0xbed5e8a5	-0.41779056
155	0xbed6220c	-0.4182285
156	0x3de13ce7	0.10997944
157	0xbf1cf456	-0.6131033
158	0xbe60d1df	-0.2195506
159	0xbf2e11e7	-0.67996067
160	0xbde7d58f	-0.1132003
161	0x3e9e44a4	0.30911744
162	0x3ef38925	0.4756557
163	0xbebe7ea6	-0.37206
164	0xbf3a57d1	-0.7279025
165	0x3f02c251	0.51077753
166	0x3e918a2d	0.28425732
167	0x3f3f42cc	0.747113
168	0xbe98eb86	-0.2986719
169	0xbdf49a35	-0.11943475
170	0x3db43abd	0.08800266
171	0x3e0daf48	0.13836396
172	0xbf2f2e46	-0.6842998
173	0xbe9109b9	-0.2832773
174	0x3f1a9ba3	0.6039373
175	0x3efd053f	0.49418065
176	0xbdbfdf4c	-0.093687624
177	0x3f45fea4	0.77341676
178	0x3dfff3c5	0.12497667
179	0xbf069007	-0.5256352
180	0xbd0a7ba3	-0.033809315
181	0xbe889012	-0.26672417
182	0x3edee2c2	0.43532377
183	0xbf125150	-0.57155323
184	0x3e061b4b	0.13096349
185	0x3f1ca0dd	0.6118296
186	0x3d90146c	0.07035145
187	0x3ce0b344	0.02742923
188	0xbf0c5208	-0.5481267
189	0x3e5ff95b	0.21872465
190	0xbde3e636	-0.111278936
191	0x3f26025e	0.6484736
192	0xbe7d7e56	-0.24755225
193	0x3ec343ca	0.38137656
194	0x3f4feb82	0.8121873
195	0x3f33eb73	0.7028114
196	0x3e28e6e4	0.16494328
197	0x3f007f58	0.5019431
198	0x3e378762	0.17922738
199	0x3f2aaee9	0.6667314

ln4.bias f4 [2]
0	0x3f5af7e5	0.8553451
1	0xbe617aff	-0.22019576

ln4.weight f4 [2, 10]
0	0xbf19b142	-0.600361
1	0xbd86202d	-0.06549106
2	0xbf9f4e9f	-1.2445868
3	0x3f340364	0.70317674
4	0xbe839486	-0.25699252
5	0x3f7b9cff	0.9828643
6	0xbdd16c8c	-0.10225782
7	0x3e1f235a	0.1554083
8	0xbf0a00c0	-0.53907394
9	0x3f426a4c	0.75943446
10	0x3e2211b1	0.15827061
11	0x3f1fc7fa	0.62414515
12	0x3f13864d	0.576268
13	0x3f3b1610	0.7308054
14	0xbe5cb249	-0.21552385
15	0xbea77106	-0.32703418
16	0xbe901b46	-0.28145808
17	0xbe79ae49	-0.24382891
18	0x3f1e4837	0.6182894
19	0x3f484a87	0.7823872
