interfaces/kalosm-learning/classifier.safetensors (safetensors, 960 bytes, 8 tensors)

ln0.bias f4 [4]
0.38423038 -0.45598316 -0.010357738 0.4322647
00000000: d8b9 c43e a076 e9be 80b3 29bc cc51 dd3e

ln0.weight f4 [4, 4]
-1.3147637 -0.30741847 -0.45639223 -0.17851935 0.695615 0.06446696 0.0012215875 0.22104502
0.0037633516 -0.5801222 0.58455616 -0.039380897 -0.11695905 -0.23589268 -0.14375865 -0.023453362
00000000: 2d4a a8bf f465 9dbe 3eac e9be c7cd 36be
00000010: d313 323f 4107 843d ad1d a03a a059 623e
00000020: 90a2 763b e382 14bf 79a5 153f dd4d 21bd
00000030: 3a88 efbd da8d 71be 7835 13be 4421 c0bc

ln1.bias f4 [8]
-0.15233028 -0.18186736 -0.090538144 0.30598533 0.1731174 -0.11437476 0.1790992 0.19490743
00000000: 78fc 1bbe 703b 3abe 106c b9bd 1caa 9c3e
00000010: b045 313e 503d eabd c865 373e d095 473e

ln1.weight f4 [8, 4]
0.3851358 1.2855979 -0.87831855 0.21540976 -0.07877376 -0.62795585 0.20019837 -1.2505189
0.09978195 0.31362775 0.3126759 0.9991264 -1.009628 -0.19232665 1.3519313 0.7048853
1.0101326 -1.25009 -0.07769655 -0.40182868 -0.34482038 -0.0026607784 -0.012302754 -0.85013545
0.8928269 0.84533685 0.30050075 0.23847184 0.53743327 -0.33188033 -0.75049764 0.54635537
00000000: 8530 c53e 798e a43f 7cd9 60bf 6094 5c3e
00000010: 2354 a1bd b7c1 20bf cd00 4d3e 0111 a0bf
00000020: 7b5a cc3d d193 a03e 0e17 a03e bfc6 7f3f
00000030: 7e3b 81bf 47f1 44be 160c ad3f 5d73 343f
00000040: 064c 813f f302 a0bf 5e1f 9fbd 7dbc cdbe
00000050: 4c8c b0be 7460 2ebb 7e91 49bc 7aa2 59bf
00000060: 4e90 643f ff67 583f 3cdb 993e f631 743e
00000070: 3a95 093f 38ec a9be 9d20 40bf f2dd 0b3f

ln2.bias f4 [4]
0.22367701 0.017134368 0.056602806 0.25165656
00000000: 960b 653e 605d 8c3c 58d8 673d 21d9 803e

ln2.weight f4 [4, 8]
-0.17898993 -0.9916522 0.10295797 0.5750306 -0.64999765 0.5580124 0.2058153 -0.28008854
0.07197168 -0.29480916 0.7633849 1.6804188 -0.33917665 -0.3546225 0.009139656 0.12409426
-0.0913639 -0.07735995 0.17360547 0.37124488 -0.4342651 -1.0523595 0.38326824 1.2642181
0.06325746 0.21020629 -0.75884885 0.14935298 0.14871168 -0.11018632 -0.34432223 -0.02691483
00000000: 2349 37be ebdc 7dbf a1db d23d 3535 133f
00000010: 3f66 26bf e7d9 0e3f 3fc1 523e c467 8fbe
00000020: e365 933d 3af1 96be 316d 433f f717 d73f
00000030: 90a8 adbe 1591 b5be 7fbe 153c 2225 fe3d
00000040: ff1c bbbd e56e 9ebd a2c5 313e cf13 be3e
00000050: ff57 debe b7b3 86bf bc3b c43e e6d1 a13f
00000060: 218d 813d 5140 573e eb43 42bf fdef 183e
00000070: e047 183e 5ea9 e1bd 014b b0be 7d7c dcbc

ln4.bias f4 [2]
-0.42512608 -0.23238802
00000000: 20aa d9be 20f7 6dbe

ln4.weight f4 [2, 4]
-0.9532625 -0.07036116 0.09528773 -0.7710667 1.5452087 0.64187455 0.7273232 -0.7997623
00000000: 0309 74bf 8319 90bd 3726 c33d a164 45bf
00000010: 66c9 c53f e451 243f da31 3a3f 39bd 4cbf
